…
Unique TEST DATA Labels and IMAGE Counts:  {0: 980, 1: 1135, 2: 1032, 3: 1010, 4: 982, 5: 892, 6: 958, 7: 1028, 8: 974, 9: 1009}
Shape--> x_train , y_train--, x_test, y_test---> 60000 60000 10000 10000
--- 28
--- 28
---x_train.shape--- (60000, 28, 28)
---x_train.shape, x_train_noise.shape---> (60000, 28, 28, 1) (60000, 28, 28, 1)
Model: "Denoising_autoencoder"
_________________________________________________________________
 Layer (type)                Output Shape              Param #   
=================================================================
 input_1 (InputLayer)        [(None, 28, 28, 1)]       0         
                                                                 
 conv2d (Conv2D)             (None, 28, 28, 32)        320       
                                                                 
 batch_normalization (Batch  (None, 28, 28, 32)        128       
 Normalization)                                                  
                                                                 
 max_pooling2d (MaxPooling2  (None, 14, 14, 32)        0         
 D)                                                              
                                                                 
 conv2d_1 (Conv2D)           (None, 14, 14, 32)        9248      
                                                                 
 batch_normalization_1 (Bat  (None, 14, 14, 32)        128       
 chNormalization)                                                
                                                                 
 max_pooling2d_1 (MaxPoolin  (None, 7, 7, 32)          0         
 g2D)                                                            
                                                                 
 conv2d_2 (Conv2D)           (None, 7, 7, 32)          9248      
                                                                 
 batch_normalization_2 (Bat  (None, 7, 7, 32)          128       
 chNormalization)                                                
                                                                 
 up_sampling2d (UpSampling2  (None, 14, 14, 32)        0         
 D)                                                              
                                                                 
 conv2d_3 (Conv2D)           (None, 14, 14, 32)        9248      
                                                                 
 batch_normalization_3 (Bat  (None, 14, 14, 32)        128       
 chNormalization)                                                
                                                                 
 up_sampling2d_1 (UpSamplin  (None, 28, 28, 32)        0         
 g2D)                                                            
                                                                 
 conv2d_4 (Conv2D)           (None, 28, 28, 1)         289       
                                                                 
=================================================================
Total params: 28865 (112.75 KB)
Trainable params: 28609 (111.75 KB)
Non-trainable params: 256 (1.00 KB)
_________________________________________________________________
None
===== autoencoder ======
--layer.name- input_1
--layer.inbound_nodes- [<keras.src.engine.node.Node object at 0x7ff5dc3522e0>]
…
